usad_feature_analysis/model.pth (torch, 177327 bytes, 18 tensors)

linear1.weight f4 [36, 72]
0	0xbdd44e26	-0.10366468
1	0x3cbd1f10	0.0230861
2	0xbda9cea6	-0.08291368
3	0x3d901185	0.070345916
4	0xbd8197b5	-0.06327764
5	0xbd0a2443	-0.033725988
6	0xbdbf67c4	-0.093459636
7	0x3db66d72	0.08907594
8	0x3de1a6b2	0.11018123
9	0xbd847d49	-0.06469209
10	0x3c8c2d15	0.01711134
11	0xbd24d409	-0.040241275
12	0xbd3fdb9a	-0.046840288
13	0xbdacdcd7	-0.08440559
14	0x3dd5e6ef	0.10444438
15	0x3cf9c7a4	0.030490704
16	0xbd9ee7e4	-0.077590734
17	0x3db3e23f	0.087833874
18	0xbcf967e6	-0.03044505
19	0xbddc555f	-0.10758471
20	0x3d320d8c	0.04346995
21	0xbdcafe78	-0.09911817
22	0x3c4f3694	0.01264729
23	0xbd5014e3	-0.05080117
24	0x3cc76555	0.024340311
25	0x3d14e7b1	0.03635377
26	0x3deac04c	0.11462459
27	0xbdac7d76	-0.08422367
28	0xbde47929	-0.11155922
29	0x3d8937d3	0.06700101
30	0x3d6cd451	0.05781967
31	0x3cd0b9c9	0.025479214
32	0xbbec958d	-0.0072199763
33	0xbdc664e3	-0.09687211
34	0xbd37066a	-0.04468385
35	0x3d8127c6	0.06306414
36	0x3dee12ef	0.11624705
37	0xbcc35027	-0.02384193
38	0x3c0c31fa	0.008556837
39	0xbdbf9c23	-0.093559526
40	0xbdd8b6a5	-0.10581712
41	0x3dba5778	0.090987146
42	0xbce68c8e	-0.028143194
43	0xbc85e114	-0.016342677
44	0xbd8c0002	-0.06835939
45	0x3de4f69d	0.1117985
46	0xbd6d41a9	-0.057923947
47	0xbd997176	-0.07492344
48	0x3d9c6c9b	0.07637902
49	0x3deaeeb4	0.1147131
50	0xbda04eb4	-0.078275114
51	0x3da661ff	0.0812416
52	0x3dbae1c4	0.091250926
53	0xbdca0baf	-0.0986551
54	0x3de78619	0.11304874
55	0x3c69408d	0.0142365815
56	0xbd639efa	-0.055571534
57	0x3cc7c754	0.02438704
58	0x3d043b9c	0.03228341
59	0xbda1d0c0	-0.07901144
60	0x3c2e97d1	0.010656313
61	0xbca0a20a	-0.019608516
62	0x3d811e46	0.06304602
63	0xbcf8edbd	-0.0303868
64	0xbda1e53f	-0.07905053
65	0xbd6532d7	-0.055956688
66	0x3c275453	0.010212976
67	0xbcd091d7	-0.025460167
68	0xbd80b973	-0.06285372
69	0x3d1d8543	0.038457166
70	0xbdc50e7f	-0.096219055
71	0xbd6644d2	-0.056217976
72	0xbdacadb5	-0.084315695
73	0xbd0a81e4	-0.03381528
74	0xbd8625eb	-0.06550201
75	0x3bd6c7bd	0.0065545724
76	0xbdba7d41	-0.091059215
77	0x3dd9d002	0.106353775
78	0x3d2e313c	0.042527422
79	0xbd24bab5	-0.04021712
80	0xbd55f7fd	-0.052238453
81	0xbddd39b8	-0.108020246
82	0x3c82021f	0.015870152
83	0x3c82f8d9	0.0159878
84	0xbdf008ca	-0.117204264
85	0xbdb5d24b	-0.08878001
86	0x3d30c315	0.043154795
87	0xbdf14129	-0.117800064
88	0x3d3a0c5a	0.045421936
89	0xbdba6800	-0.09101868
90	0xbd2cdd4a	-0.042203225
91	0xbce87202	-0.028374676
92	0xbda5d71b	-0.08097669
93	0x395a0b44	0.00020794297
94	0x3dd7f660	0.10545039
95	0xbd86cf8a	-0.06582554
96	0xbd2d3b4a	-0.04229287
97	0xbd012639	-0.031530593
98	0x3c3b35a5	0.011426364
99	0xbdd4118e	-0.10354911
100	0x3cb2542b	0.02176865
101	0xbd8fad60	-0.070154905
102	0xbdbb5591	-0.0914718
103	0x3d1cc829	0.038276825
104	0x3db24741	0.08704997
105	0xbdc050cd	-0.093904115
106	0x3d749f9c	0.059722528
107	0x3d97ced0	0.07412493
108	0x3ced7eb4	0.02899108
109	0x3ccb7150	0.024834305
110	0x3dc1b5f4	0.09458533
111	0xbdd16d29	-0.10225899
112	0xbba0b892	-0.004904815
113	0xbc32e727	-0.010919369
114	0xbdeede7d	-0.1166353
115	0x3d5b0d09	0.05347923
116	0xbc51b3bb	-0.012799199
117	0x3cc9089c	0.024540238
118	0x3cd9f638	0.026606664
119	0xbddc824e	-0.10767041
120	0x3dc5f577	0.09665959
121	0xbcffa76d	-0.031207765
122	0x3d8fb2fa	0.07016559
123	0x3dc2b2a7	0.095067315
124	0xbddc850e	-0.10767566
125	0x3de1193c	0.10991141
126	0x3b8e1550	0.0043360367
127	0x3ddb40af	0.10705697
128	0xbdc6c2cc	-0.09705123
129	0xbd972bef	-0.073814265
130	0xbdcdea82	-0.100544944
131	0xbd5f3bad	-0.05450027
132	0xbc577bdd	-0.01315209
133	0xbdc03830	-0.09385717
134	0x3cd8c9bd	0.026463384
135	0xbdc37b43	-0.09544995
136	0xbce73b4a	-0.028226513
137	0x3dbb2e1b	0.09139653
138	0xbd8165d3	-0.063182496
139	0xbdcbaa74	-0.09944621
140	0x3d9af3bb	0.07566019
141	0xbc7767d1	-0.015100435
142	0x3c098a6b	0.008394818
143	0x3de13d88	0.10998064
144	0x3dd0b376	0.101904795
145	0x3ddcd659	0.10783071
146	0xbb301c88	-0.0026872475
147	0xbdcc7ebd	-0.09985111
148	0x3ddfe4d3	0.10932317
149	0x3d5f378a	0.054496326
150	0x3df093c6	0.117469355
151	0xbd8b95b5	-0.06815664
152	0x3db74c78	0.08950132
153	0xbda7e3ac	-0.08197722
154	0x3db3a486	0.08771615
155	0x3dc1bf00	0.094602585
156	0x3d2ddd00	0.04244709
157	0x3dd31579	0.1030683
158	0x3dcb935b	0.09940215
159	0x3d413914	0.047173575
160	0xbd833969	-0.064074345
161	0xbdd8e7c0	-0.10591078
162	0xbad0f48e	-0.0015942024
163	0xbd5730a7	-0.052536633
164	0x3dc2d7b5	0.09513799
165	0x3c2ce194	0.010551829
166	0xbd8efeaf	-0.06982171
167	0x3d099e7f	0.03359842
168	0x3d3d03e2	0.04614628
169	0x3ca5bcba	0.020231593
170	0x3c1b8d8b	0.009494196
171	0xba893b08	-0.0010469863
172	0x3c873c9d	0.016508395
173	0x3dd3afef	0.10336291
174	0x3d6fb20a	0.0585194
175	0xbdf6f95f	-0.120592825
176	0xbdba59b8	-0.09099144
177	0x3dac2952	0.08406319
178	0x3dd5a83a	0.10432477
179	0x3d8dd22e	0.06924854
180	0xbcce1033	-0.025154209
181	0xbb86e091	-0.004116126
182	0xbd9371e5	-0.07199458
183	0x3b33f6d8	0.0027460363
184	0x3d6864b8	0.056736678
185	0xbd5b6481	-0.053562645
186	0x3c58125b	0.01318797
187	0xbd95f880	-0.07322788
188	0x3d34ccce	0.04414063
189	0x3dbe1f32	0.09283294
190	0xbdba6ed5	-0.09103171
191	0x3d9e7a77	0.07738202
192	0xbc005a26	-0.007833993
193	0xbcd991de	-0.026558813
194	0xbdb81cfa	-0.08989902
195	0xbd1e1bfd	-0.03860091
196	0xbd09ee2c	-0.033674404
197	0x3db7e603	0.08979418
198	0xbc7fd28f	-0.015614166
199	0x3d84dece	0.06487809
200	0xbd13a9b9	-0.036050532
201	0xbdf62036	-0.120178625
202	0x3d0272f8	0.031847924
203	0x3dab011d	0.08349822
204	0xbce43719	-0.027858304
205	0xbdd03d8a	-0.10167988
206	0xbd5790a2	-0.052628167
207	0x3d37b7c3	0.044852983
208	0xbd6bdf4c	-0.057586
209	0xbcd8e090	-0.026474267
210	0x3de86b0b	0.11348542
211	0xbc2853ad	-0.010273856
212	0xbbe74cc8	-0.0070587136
213	0x3db9c30c	0.09070405
214	0x3da48e44	0.080349475
215	0xbd374023	-0.0447389
216	0xbd3fbea2	-0.04681266
217	0xbd876742	-0.06611492
218	0xbd8b3a01	-0.06798173
219	0xbd979662	-0.0740173
220	0x3d0fe312	0.03512866
221	0xbda30266	-0.07959442
222	0xbd995228	-0.07486373
223	0x3d098df6	0.03358265
224	0x3c8a9a64	0.016919322
225	0xbc684ab0	-0.014177963
226	0x3dd85d07	0.105646186
227	0x3c6bbb68	0.014387943
228	0xbd4a16e8	-0.04933825
229	0x3d12474e	0.035712533
230	0xbc9df744	-0.019282945
231	0xbdd6775e	-0.10471986
232	0xbc8a2b30	-0.016866297
233	0x3c3ce4d8	0.01152917
234	0xbdcff2c3	-0.10153725
235	0x3de45bb7	0.11150306
236	0xbde26666	-0.11054687
237	0x3cb477ec	0.02202984
238	0xbde1d902	-0.11027719
239	0x3d382086	0.04495289
240	0xbd99f1a6	-0.07516794
241	0xbd9fe71e	-0.07807754
242	0xbce01220	-0.027352393
243	0x3cb02e54	0.021506466
244	0xbc0d0fe0	-0.008609742
245	0x3d0d6ac6	0.034525655
246	0x3defb0a9	0.11703617
247	0x3ddde5bf	0.10834836
248	0xbc8e4d24	-0.017370768
249	0xbd7d895c	-0.061898574
250	0xbd4e9992	-0.050439425
251	0x3ccfb6e4	0.025355764
252	0x3d040826	0.032234333
253	0xbccf2a50	-0.02528873
254	0x3d89d445	0.0672994
255	0xbc61c1e8	-0.013779141

linear1.bias f4 [36]
0	0xbb851964	-0.0040618647
1	0x3da0bd66	0.07848625
2	0xbc6446ef	-0.0139329275
3	0xb99ed200	-0.0003029257
4	0x3d5a047b	0.05322693
5	0xbd8b41fa	-0.067996934
6	0xbdea60c5	-0.114442386
7	0xbdb1e3cf	-0.08686029
8	0x3d5f5851	0.054527584
9	0xbc4591d7	-0.012058697
10	0xbcec3b88	-0.02883698
11	0xbd5afc82	-0.053463466
12	0xbd9e134a	-0.07718523
13	0xbdde8413	-0.10865035
14	0x3dbc19ad	0.09184585
15	0x3d946c19	0.072471805
16	0x3ddce0c2	0.10785057
17	0xbc63f920	-0.0139143765
18	0x3d8ac2ec	0.0677546
19	0x3d9e3bc0	0.0772624
20	0x3d72cebe	0.059279196
21	0x3d81276f	0.063063495
22	0x3da7f634	0.082012564
23	0x3d61393f	0.054986235
24	0xbdcf3086	-0.10116677
25	0x3c4c8295	0.012482305
26	0xbdce0641	-0.100597866
27	0xbb67e95e	-0.00353869
28	0xbc9356d1	-0.017985733
29	0xbd7f1426	-0.062275074
30	0x3c770485	0.015076761
31	0x3d9f83c9	0.07788808
32	0x3d94e086	0.07269387
33	0xbdccad97	-0.09994047
34	0xbc233410	-0.009961143
35	0xbd7ee684	-0.062231556

linear2.weight f4 [18, 36]
0	0x3e15a6c0	0.14614391
1	0xbdff6195	-0.12469784
2	0xbc957858	-0.018245861
3	0xbe0504ac	-0.12990063
4	0x3d032d67	0.03202572
5	0x3dfb4712	0.12269415
6	0x3d71b480	0.05901003
7	0xbdec54ee	-0.115396366
8	0x3d360a1e	0.044443242
9	0x3daf6fd6	0.08566253
10	0xbd966083	-0.07342627
11	0x3dde4e21	0.10854746
12	0x3e1f9155	0.15582784
13	0xbd602058	-0.054718345
14	0xbd0fd371	-0.035113756
15	0x3e22ab04	0.1588555
16	0x3e34b269	0.17646183
17	0x3d6e58bc	0.058190092
18	0xbdd46c07	-0.10372167
19	0xbd2a80ae	-0.041626625
20	0x3db5754e	0.08860265
21	0x3e20fb34	0.15720826
22	0xbd75d402	-0.06001664
23	0xbd374351	-0.044741932
24	0xbe180a54	-0.1484769
25	0x3d8047ba	0.06263681
26	0xbe080a16	-0.13285097
27	0x3d8e663f	0.06953096
28	0x3cf233be	0.029565688
29	0x3d829dea	0.06377776
30	0xbd9775f3	-0.07395544
31	0xbe26d1f7	-0.16291033
32	0x3dd40946	0.10353331
33	0xbe260e01	-0.1621628
34	0x3e28243d	0.16420074
35	0xbd73b30a	-0.059496917
36	0x3d05304c	0.032516763
37	0xbd74e7ec	-0.05979149
38	0xbe2a0543	-0.1660357
39	0x3d9a9b78	0.075491846
40	0xbe2382a7	-0.15967809
41	0x3d1e79d4	0.038690403
42	0x3bd6af00	0.0065516233
43	0xbdb33f0e	-0.08752261
44	0xbd839978	-0.06425756
45	0x3e13d96f	0.14438413
46	0xbdca1ef0	-0.09869182
47	0x3d1a4824	0.037666455
48	0xbdba1350	-0.09085715
49	0xbe16dcda	-0.14732686
50	0xbad05c80	-0.0015896708
51	0x3d7c95c0	0.06166625
52	0x3ddff1da	0.109348014
53	0x3cfbf638	0.030757055
54	0xbcf3e948	-0.029774323
55	0xbdfae40e	-0.12250529
56	0xbccf81a0	-0.025330365
57	0x3d93b7f0	0.07212818
58	0xbdbb58b0	-0.09147775
59	0xbdd2a196	-0.10284726
60	0x3dc096c2	0.09403755
61	0x3c6e3cd0	0.014540866
62	0x3c926f20	0.017875254
63	0x3d86d27a	0.06583114
64	0x3ca6eb98	0.020376012
65	0x3e0eb6c3	0.13936906
66	0xbe06d4ef	-0.13167165
67	0xbd261480	-0.040546894
68	0x3d7ccb24	0.061717167
69	0xbd625216	-0.055254065
70	0xbe23a97b	-0.1598262
71	0x3d1608a0	0.03662932
72	0x3cc257e0	0.023723543
73	0x3e28f9f9	0.16501607
74	0xbd252b50	-0.04032451
75	0x3e2395fb	0.15975182
76	0xbd847200	-0.06467056
77	0x3d817a2a	0.06322129
78	0xbdee46d6	-0.11634605
79	0x3daed4aa	0.08536656
80	0x3db22fbe	0.08700512
81	0xbe2279f0	-0.15866828
82	0x3e181ccd	0.14854737
83	0x3e1b2a01	0.15152742
84	0xbde64bc0	-0.11244917
85	0xbdc8871b	-0.09791394
86	0xbdb4944b	-0.08817347
87	0xbe277473	-0.16353016
88	0xbc4ba240	-0.01242882
89	0xbd2009ac	-0.039071724
90	0x3b8014e0	0.0039087385
91	0xbdf3485e	-0.11879037
92	0x3a315100	0.0006764084
93	0x3d156004	0.03646852
94	0xbdd6745e	-0.10471414
95	0xbd62ba2c	-0.05535333
96	0xbdd00bd0	-0.10158503
97	0xbb9c7aa0	-0.00477536
98	0xbd4a7d50	-0.049435914
99	0x3e159ba1	0.14610149
100	0x3e16960b	0.14705674
101	0x3d9db3a2	0.07700278
102	0xbe15b056	-0.14618048
103	0xbe1b0860	-0.15139914
104	0x3e11c34d	0.14234658
105	0xbe21817b	-0.15772049
106	0x3d57d994	0.052697733
107	0x3ccf7918	0.025326297
108	0xbd418836	-0.04724904
109	0x3d975d50	0.07390845
110	0xbda573fb	-0.08078762
111	0xbc8ea1e0	-0.017411172
112	0x3df1fbca	0.11815603
113	0xbe1bb2ba	-0.15204898
114	0x3df059ce	0.11735879
115	0xbd44b14c	-0.048020646
116	0x3e167d7f	0.1469631
117	0x3e025449	0.12727465
118	0x3e24a169	0.16077198
119	0xbcc6c948	-0.0242659
120	0x3b055ec0	0.0020350665
121	0xbde57ed6	-0.11205833
122	0x3e1ef6bd	0.1552381
123	0xbcad6698	-0.021167085
124	0xbdb0d08e	-0.08633529
125	0x3df37e1a	0.11889286
126	0x3e241c99	0.16026534
127	0x3e2a8191	0.16650988
128	0x3e226e71	0.15862443
129	0x3b92b900	0.00447762
130	0xbe16d42b	-0.14729373
131	0xbe096923	-0.13419013
132	0xbe257506	-0.16157922
133	0xbd7586cc	-0.059943005
134	0xbd82808e	-0.06372176
135	0xbae50a80	-0.0017474443
136	0xbdab54db	-0.08365794
137	0xbdd4ce9b	-0.10390969
138	0xb8824800	-6.212294e-05
139	0xbdb344d0	-0.08753359
140	0x3e229eb3	0.15880851
141	0x3dd9d54a	0.10636385
142	0xbd012680	-0.031530857
143	0x3d0236fc	0.03179072
144	0xbe16bda2	-0.14720777
145	0x3d592fdd	0.05302416
146	0x3df87720	0.12132096
147	0x3dbe5a5a	0.09294577
148	0xbdfc0c28	-0.12307006
149	0xbe218985	-0.15775116
150	0xbdf22f8f	-0.11825477
151	0x3dfcf487	0.123513274
152	0xbd0c184f	-0.03420287
153	0x3c870bfe	0.01648521
154	0x3e064f0f	0.13116096
155	0x3dc5d27b	0.096592866
156	0xbdc0781e	-0.093979105
157	0x3e059e2f	0.13048624
158	0x3b3ca2f9	0.0028783663
159	0x3ddff34c	0.10935077
160	0x3ded8d64	0.11599234
161	0x3d3cb330	0.046069324
162	0x3e0f2969	0.1398064
163	0x3dae17d2	0.08500637
164	0xbd22d7e0	-0.039756656
165	0xbe129980	-0.14316368
166	0xbcdffed7	-0.027343197
167	0x3db05ddd	0.08611653
168	0xbd554300	-0.05206585
169	0xbd5f5f6e	-0.05453437
170	0x3e0abd3d	0.13548751
171	0x3e1063e5	0.14100607
172	0xbe0cf584	-0.13765532
173	0x3dd8426a	0.105595425
174	0xbe389e80	-0.18029213
175	0xbe21d48c	-0.15803736
176	0xbe2cbd5e	-0.16869113
177	0x3e298ee6	0.16558418
178	0x3db8bbf6	0.09020226
179	0x3dc00d45	0.09377531
180	0x3dea96ed	0.11454568
181	0x3e0e7c09	0.13914503
182	0x3dc45b4e	0.095877275
183	0xbc866388	-0.016404882
184	0x3e1bcc93	0.15214758
185	0x3e21577e	0.15756032
186	0xbd82af56	-0.06381099
187	0x3e13774b	0.14400975
188	0xbdd10ee7	-0.102079205
189	0xbc99b03d	-0.018760795
190	0xbe1a0995	-0.15042718
191	0x3d9a3233	0.07529106
192	0xbd3684f0	-0.044560373
193	0xbd4e002f	-0.050293144
194	0xbd50774d	-0.050895024
195	0x3d3a6f6d	0.04551642
196	0x3d88eaba	0.066853955
197	0x3bc61e00	0.0060460567
198	0xbd303a31	-0.043024246
199	0x3df099a2	0.11748053
200	0xbe1223b4	-0.14271432
201	0xbda25a00	-0.079273224
202	0xbd3f629a	-0.046724893
203	0x3e1a0689	0.15041555
204	0xbd0ccd20	-0.03437531
205	0xbe22e881	-0.15909006
206	0x3da610b0	0.08108652
207	0x3dedda16	0.11613862
208	0x3dad96ec	0.08476052
209	0xbda23bdb	-0.07921573
210	0x3e12e07d	0.14343448
211	0xbdb8a165	-0.090151586
212	0xbcdbb176	-0.026818018
213	0xbd844b05	-0.06459621
214	0xbdf5fc4b	-0.12011012
215	0xbdec4b8e	-0.115378484
216	0xbcb9b881	-0.022670986
217	0xbccca3f2	-0.024980519
218	0xbe11e6ae	-0.14248154
219	0xbc440700	-0.01196456
220	0x3dfaaf3c	0.122404546
221	0xbd9b5d4c	-0.07586154
222	0xbce677fb	-0.028133383
223	0xbceb9d52	-0.02876154
224	0xbd8194a9	-0.06327183
225	0x3d89a8e2	0.06721665
226	0x3bc5d7dd	0.006037696
227	0xbe14774e	-0.14498636
228	0xbdaf60d6	-0.08563392
229	0xbd13b265	-0.036058802
230	0x3e32d5e8	0.17464411
231	0xbcadabd5	-0.0212001
232	0xbddac1de	-0.106815085
233	0xbdfb40f6	-0.1226825
234	0xbd1ed992	-0.03878171
235	0x3d097a25	0.03356375
236	0x3b1552c0	0.0022784919
237	0x3d1b1cd9	0.03786931
238	0x3dd6bdc8	0.10485417
239	0x3d6c384e	0.057670884
240	0x3d33befc	0.04388331
241	0x3d853847	0.06504875
242	0x3e02a33d	0.12757583
243	0x3e26345a	0.16230908
244	0x3d1ffaf9	0.039057706
245	0x3d9439d0	0.07237589
246	0xbbc73da5	-0.0060803466
247	0x3aee1eea	0.0018167172
248	0x3df71b8c	0.12065801
249	0x3d593d40	0.05303693
250	0x3db78b26	0.08962087
251	0xbe038d40	-0.12846851
252	0xbe1800a4	-0.14843994
253	0xbd8014ca	-0.06253965
254	0x3bf791f6	0.0075552417
255	0x3dde9ac2	0.108693615

linear2.bias f4 [18]
0	0x3e0fd810	0.14047265
1	0xbd9f8000	-0.07788086
2	0xbd7f7c66	-0.062374495
3	0xbd893996	-0.06700437
4	0x3de16ed2	0.110074654
5	0xbd2831a6	-0.041062973
6	0x3c9bd5bc	0.019022815
7	0xbe0371a2	-0.12836316
8	0xbe0e807a	-0.13916197
9	0xbc14c711	-0.009080664
10	0x3e1f2c54	0.15544254
11	0xbd877c7a	-0.06615539
12	0xbe111563	-0.14168315
13	0x3d967008	0.07345587
14	0xbc938378	-0.018007025
15	0xbada73e1	-0.0016666615
16	0x3d7a7c39	0.061153624
17	0x3d8cbbfe	0.06871794

linear3.weight f4 [600, 18]
0	0x3e1172e0	0.14203978
1	0x3e3413e7	0.17585717
2	0xbdd7f0fe	-0.105440125
3	0xbe4afddc	-0.19823402
4	0x3e5c911c	0.2153973
5	0x3e4b29de	0.1984019
6	0xbd93abe6	-0.072105214
7	0x3d041984	0.032250896
8	0x3d83fc5a	0.064446166
9	0x3e538d77	0.20659433
10	0xbe6133c9	-0.2199241
11	0x3dd906d6	0.10597007
12	0xbe184276	-0.14869103
13	0x3d3f9a0d	0.046777774
14	0xbd16a0c4	-0.03677441
15	0xbd9ea28c	-0.07745847
16	0xbe64c3a3	-0.22340254
17	0x3d350974	0.04419847
18	0xbda3007a	-0.07959075
19	0xbc9f8ad8	-0.019475386
20	0xbdcee27e	-0.10101794
21	0x3c91b108	0.01778461
22	0x3e5b9fd5	0.2144769
23	0xbd2cbc28	-0.042171627
24	0xbdad8148	-0.08471924
25	0xbe4a8b29	-0.19779648
26	0x3dd65c7a	0.10466857
27	0xbe0121c6	-0.1261054
28	0xbd3c4d34	-0.045972064
29	0x3d9369d6	0.07197921
30	0xbd2f44f4	-0.04279037
31	0x3bce37e0	0.006293282
32	0xbe38e9a2	-0.18057874
33	0xbc0056e0	-0.007833213
34	0xbdffcc19	-0.124901004
35	0x3e1d9d31	0.15391995
36	0xbe6adbd5	-0.22935422
37	0x3df1f1da	0.11813708
38	0xbdab02f8	-0.083501756
39	0xbcf30ce0	-0.029669225
40	0xbe3ccd14	-0.18437606
41	0xbc4dd7f0	-0.012563691
42	0xbca02888	-0.019550577
43	0xbbf02dc0	-0.0073296726
44	0xbdfd05f9	-0.12354655
45	0x3e5872b5	0.21137507
46	0x3e428991	0.1899779
47	0x3e6a718f	0.22894882
48	0xbe4ad5e1	-0.19808151
49	0xbde50fbb	-0.11184641
50	0xbc5ac830	-0.0133533925
51	0xbd9ffc18	-0.07811755
52	0x3e4c3791	0.19943072
53	0xbe61b966	-0.2204338
54	0x3e4a5e1d	0.19762464
55	0x3d484574	0.04889436
56	0xbe6dea26	-0.23233852
57	0xbdeb7dfb	-0.11498638
58	0x3e0de153	0.13855486
59	0xbdf825db	-0.12116595
60	0x3e433843	0.19064431
61	0x3e30a1c9	0.17249216
62	0xbda48654	-0.080334336
63	0x3e22ca47	0.15897475
64	0xbe5f4fe8	-0.21807826
65	0xbe651797	-0.2237228
66	0x3e70a7ff	0.23501585
67	0xbd691f9c	-0.05691491
68	0x3e4e430b	0.20142762
69	0x3e3c35a9	0.18379845
70	0xbd8cbe94	-0.068722874
71	0xbda5e428	-0.08100158
72	0x3e5f2249	0.21790422
73	0x3e6f1777	0.23348795
74	0x3d86f686	0.06589989
75	0x3c456430	0.012047812
76	0x3e18ab5a	0.14909115
77	0xbe0892e4	-0.13337284
78	0x3e1d8c73	0.15385608
79	0x3e2d5be3	0.16929583
80	0x3d51ae18	0.05119142
81	0xbdd8c141	-0.10583735
82	0x3e0c0dca	0.13677135
83	0x3dc3079c	0.09522936
84	0x3d5ed73c	0.054404482
85	0x3e2eea02	0.17081454
86	0x3dd05d4e	0.101740465
87	0x3e53fd7c	0.20702165
88	0xbd983a21	-0.07432962
89	0x3d131116	0.035904966
90	0xbdb713cb	-0.08939322
91	0x3d541824	0.051780835
92	0x38cbd000	9.718537e-05
93	0x3e451523	0.19246344
94	0xbc5b09b8	-0.013369016
95	0xbe14ab57	-0.14518486
96	0x3e77a8dd	0.2418551
97	0xbe4d637a	-0.20057479
98	0x3e32238c	0.17396373
99	0xbe4b733f	-0.19868182
100	0x3da735e2	0.08164574
101	0xbd88fa45	-0.0668836
102	0x3d1e49cc	0.038644597
103	0xbd6aa2d9	-0.05728421
104	0xbe70069f	-0.23440026
105	0x3d3c4d4b	0.04597215
106	0xbe661bfa	-0.2247161
107	0x3e373c10	0.17894006
108	0xbe33d610	-0.17562127
109	0x3d88e322	0.06683947
110	0xbc499670	-0.0123039335
111	0x3d7f57a4	0.06233944
112	0xbd9bf7fb	-0.07615658
113	0x3cd0f69a	0.025508214
114	0xbe22d203	-0.15900426
115	0xbd95567b	-0.072918855
116	0x3e436b6a	0.19083944
117	0xbd10a842	-0.035316713
118	0xbe2a6b27	-0.16642438
119	0xbe15faf2	-0.1464651
120	0x3e14acc9	0.14519037
121	0x3d33d7f5	0.043907125
122	0xbd9bff3a	-0.0761704
123	0xbe11f06b	-0.14251868
124	0xbd77b98a	-0.06047968
125	0xbd1c6e13	-0.038190912
126	0x3e41f92b	0.18942706
127	0x3e0e7133	0.1391037
128	0x3e241071	0.16021897
129	0x3c43a730	0.011941716
130	0x3dab42b6	0.083623335
131	0xbe11d6ca	-0.14242092
132	0xbac23c93	-0.0014819078
133	0xbc09e574	-0.008416522
134	0x3e17454b	0.14772527
135	0xbd3d48c4	-0.046211973
136	0x3e016b81	0.12638666
137	0x3e2ed7f3	0.17074566
138	0x3cd59f88	0.026077047
139	0xbddd021b	-0.10791417
140	0xbe6c1df5	-0.23058303
141	0x3dba1bd8	0.09087342
142	0xbe458ec4	-0.19292742
143	0xbdeedbb0	-0.11662996
144	0x3e0532b7	0.13007627
145	0xbd226e20	-0.039655805
146	0xbdec6302	-0.11542322
147	0x3d741e0c	0.059598967
148	0xbda07136	-0.07834093
149	0xbd3bdad4	-0.045862988
150	0xbe0de2af	-0.13856004
151	0xbe2189f6	-0.15775284
152	0xbde94ebb	-0.1139197
153	0x3c0a22c0	0.008431137
154	0x3d8605be	0.06544064
155	0x3e4dec67	0.20109712
156	0xbe4cbe81	-0.19994546
157	0xbcaa7780	-0.020808935
158	0xbb163600	-0.002292037
159	0x3daeeda2	0.085414186
160	0x3d6add34	0.057339862
161	0x3c8f4818	0.017490432
162	0x3e145fc7	0.14489661
163	0x3debda6a	0.115162686
164	0x3e041cfd	0.12901683
165	0xbe5ba57e	-0.21449849
166	0x3dfd108a	0.1235667
167	0xbe4ddffe	-0.20104977
168	0xbdb8d18d	-0.09024344
169	0x3da6cf54	0.081450135
170	0xbd6d0864	-0.05786933
171	0xbe12401f	-0.14282273
172	0x3ccaa71d	0.024737889
173	0xbd93f3bf	-0.07224225
174	0x3d52a26c	0.05142443
175	0x3e5282f4	0.20557767
176	0xbe415476	-0.18879876
177	0x3e0ef780	0.13961601
178	0x3dd40044	0.10351613
179	0xbe39283c	-0.18081754
180	0xbdf8618c	-0.121279806
181	0x3d972262	0.07379605
182	0xbe497516	-0.19673571
183	0x3dbddd7a	0.09270759
184	0x3b400080	0.0029297173
185	0xbd044000	-0.032287598
186	0x3d805cd6	0.06267707
187	0x3cb84f08	0.022498623
188	0xbe05b0dc	-0.13055748
189	0xbe2d6674	-0.16933614
190	0xbd53396c	-0.051568434
191	0x3da2bcb6	0.0794615
192	0xbe578951	-0.21048476
193	0x3d07983c	0.033104166
194	0x3c9073b8	0.017633304
195	0xbe36d4e5	-0.1785465
196	0x3d556cdc	0.05210577
197	0xbde8b42f	-0.11362492
198	0x3d994f21	0.07485796
199	0x3d8e2f96	0.0694267
200	0x3e61a5bf	0.22035883
201	0x3dec0ec2	0.11526252
202	0x3d65c23c	0.05609344
203	0x3d35c3f3	0.044376325
204	0xbe4e0715	-0.20119889
205	0xbe2e3464	-0.17012173
206	0xbb9cbc3f	-0.004783183
207	0x3e5b55cb	0.21419446
208	0xbe06e953	-0.13174944
209	0x3e0add24	0.13560921
210	0x3b8b3440	0.004248172
211	0xbe4b69ad	-0.19864531
212	0xbe25bac4	-0.16184527
213	0xbe37165e	-0.17879626
214	0x3e465191	0.19367053
215	0x3e2e85da	0.17043248
216	0x3e4233b5	0.18965037
217	0x3e54174d	0.20712014
218	0x3df3c41e	0.11902641
219	0xbe31c514	-0.17360336
220	0x3e53c16b	0.20679252
221	0xbcd8a070	-0.02644369
222	0xbdf66030	-0.12030065
223	0xbdaa3044	-0.08309987
224	0x3d3d6c6c	0.046245977
225	0x3c719550	0.0147450715
226	0x3e2caa45	0.16861828
227	0x3e1cdd95	0.15318902
228	0xbd9fee80	-0.07809162
229	0x3e105829	0.1409613
230	0x3d5517ac	0.05202453
231	0xbe25addd	-0.16179605
232	0x3da03d2e	0.07824169
233	0xbe692c15	-0.22770722
234	0xbe465c13	-0.19371061
235	0x3e0e7ecd	0.13915558
236	0x3da887b2	0.08229007
237	0x3d3f24ac	0.046665832
238	0xbe620abd	-0.22074409
239	0x3e2c9c7c	0.16856569
240	0xbd224005	-0.039611835
241	0xbd893a8b	-0.06700619
242	0xbd86440c	-0.06555948
243	0xbe317ae0	-0.1733203
244	0xbdd96ed0	-0.10616839
245	0xbe2ba064	-0.16760403
246	0x3e38f5eb	0.1806256
247	0x3bee71cb	0.007276749
248	0xbe639c0b	-0.22227494
249	0xbdafd35e	-0.08585237
250	0x3d6882d7	0.056765404
251	0xbcf353c7	-0.029703034
252	0xbe04a283	-0.12952618
253	0xbe39f2c4	-0.18159014
254	0x3e054103	0.13013081
255	0xbe2eb2c8	-0.17060387

linear3.bias f4 [600]
0	0xbe1990ae	-0.14996597
1	0xbdec8ac5	-0.11549906
2	0xbddd8c50	-0.10817778
3	0xbe3c979e	-0.18417212
4	0x3b8fa91c	0.004384173
5	0x3e56815e	0.20947787
6	0x3e574482	0.21022227
7	0xbd202911	-0.039101664
8	0xbe22c1a0	-0.15894175
9	0x3e579b91	0.21055438
10	0xbe0753d6	-0.13215575
11	0x3e2dc42a	0.16969362
12	0xbe020832	-0.12698439
13	0xbb075304	-0.0020648846
14	0xbd7a6f73	-0.061141443
15	0x3e43d375	0.19123633
16	0x3df97d5a	0.12182112
17	0x3e599ae1	0.21250488
18	0x3d8de6d5	0.06928793
19	0xbd805450	-0.06266081
20	0xbdbc4234	-0.09192315
21	0xbdb386ce	-0.08765946
22	0xbe5f693c	-0.21817487
23	0x3c13f2cf	0.009030058
24	0x3d592145	0.053010244
25	0x3d84bda0	0.064814806
26	0x3e5e5462	0.21711877
27	0xbd64aadc	-0.055827007
28	0xbd9dfbf9	-0.077140756
29	0xbc7b6a16	-0.015345117
30	0x3dd2f753	0.103010796
31	0xbcd224e4	-0.025652356
32	0x3c5f6381	0.013634563
33	0xbdd0a2d1	-0.10187305
34	0xbe1d1431	-0.15339734
35	0x3e3f71de	0.1869578
36	0xbe3b1cf8	-0.1827277
37	0xbbe3ba05	-0.0069496655
38	0xbdb81714	-0.08988777
39	0x3e6d8020	0.23193407
40	0xbe017f7c	-0.12646288
41	0xbe5e226f	-0.21692823
42	0x3d27090c	0.040780112
43	0xbd936b08	-0.07198149
44	0xbd9606fe	-0.073255524
45	0xbe3dc7fd	-0.1853332
46	0xbdd88b32	-0.105734244
47	0xbe6df83c	-0.23239225
48	0x3dc07a6f	0.09398352
49	0x3e2283d4	0.15870601
50	0x3e648c23	0.22319083
51	0x3da2f9ad	0.07957778
52	0x3d95daa5	0.07317094
53	0x3e476922	0.19473699
54	0x3e2f09e0	0.17093611
55	0xbe1a0020	-0.1503911
56	0x3e025f7e	0.1273174
57	0xbe0d094e	-0.1377308
58	0x3dbf12a0	0.09329724
59	0xb96881f0	-0.0002217365
60	0xbe63dbd7	-0.22251831
61	0x3d8a80ec	0.06762871
62	0xbe2d9f06	-0.16955194
63	0x3b5de7e2	0.0033860137
64	0xbce0ab31	-0.02742538
65	0x3d0129b3	0.031533908
66	0xbdd58e3e	-0.10427521
67	0xbdd10c70	-0.102074504
68	0xbe28497c	-0.16434282
69	0xbce17e50	-0.02752605
70	0xbe65d540	-0.2244463
71	0x3cfd57cc	0.030925654
72	0xbe04de40	-0.12975407
73	0x3e6aa127	0.22913037
74	0x3ddf0d1f	0.108911745
75	0x3dbd1d9a	0.09234162
76	0x3e0fc3cb	0.14039533
77	0x3d1fad2b	0.038983505
78	0xbe020e70	-0.1270082
79	0x3e5c4c4d	0.21513481
80	0xbcdae52d	-0.026720608
81	0x3d43b2c4	0.047777906
82	0xbcc8223d	-0.024430389
83	0x3e0d0dd1	0.13774802
84	0x3e327475	0.17427237
85	0x3db885bd	0.090098836
86	0x3de3630d	0.11102877
87	0x3e787fec	0.24267548
88	0xbe1c0953	-0.15237932
89	0xbe38e82e	-0.1805732
90	0x3e0eb4bc	0.13936132
91	0x3d8ee740	0.06977701
92	0x3df12702	0.11775018
93	0xbdebd6a2	-0.11515547
94	0x3dba73a8	0.09104091
95	0x3c97bab2	0.01852164
96	0xb8917f21	-6.9378184e-05
97	0xbdfe935e	-0.12430452
98	0x3c88ea88	0.016713396
99	0x3e458860	0.19290304
100	0xbdadd835	-0.08488504
101	0x3e2f2f7f	0.17107962
102	0x3d53c69a	0.051703073
103	0x3e575846	0.21029767
104	0x3d9d1848	0.07670647
105	0xbe4d8842	-0.2007151
106	0x3e755b3c	0.23960584
107	0x3e2b6834	0.16738969
108	0xbe029994	-0.12753898
109	0x3d8026de	0.06257413
110	0x3d5518ae	0.05202549
111	0x3c323294	0.010876317
112	0x3e4ca03f	0.19983004
113	0xbd5512b2	-0.052019782
114	0xbe0de5e3	-0.13857226
115	0x3e38aaba	0.18033877
116	0xbe3af09b	-0.18255846
117	0x3e68a357	0.22718559
118	0xbdb29802	-0.087203994
119	0xbe665227	-0.22492276
120	0x3e5550df	0.20831631
121	0xbda97ea6	-0.082761094
122	0xbd93cee8	-0.072171986
123	0xbda5b046	-0.08090262
124	0x3e785c4b	0.24253957
125	0xbcd31708	-0.025767818
126	0x3da8bc12	0.082389966
127	0x3e119ac5	0.14219196
128	0x3ddda9f5	0.10823432
129	0xbc170df8	-0.009219639
130	0xbca3e360	-0.020005882
131	0xbd89b120	-0.06723237
132	0x3d20e43c	0.03928016
133	0xbdee3414	-0.11631027
134	0x3e7170be	0.23578164
135	0xbe24e19d	-0.1610169
136	0x3cb0b933	0.021572685
137	0x3dd6d28a	0.10489376
138	0x3de9bd7d	0.11413095
139	0xbe2edeba	-0.17077151
140	0xbd3798b1	-0.044823352
141	0x3e3808ab	0.17972057
142	0x3cc8a111	0.024490865
143	0x3e123861	0.1427932
144	0x3df5f8b0	0.12010324
145	0x3e44da25	0.1922384
146	0x3da7e40d	0.08197794
147	0x3cb6923f	0.022286532
148	0xbe2c2b62	-0.16813424
149	0x3e0bccf3	0.136524
150	0xbdca9314	-0.09891334
151	0x3c538528	0.012910165
152	0x3c41bb30	0.011824414
153	0x3e12731e	0.14301726
154	0xbd3dddcb	-0.046354096
155	0xbd121ca8	-0.03567186
156	0xbcab329d	-0.020898158
157	0xbe252c3c	-0.16130155
158	0xbe6b3913	-0.22970991
159	0xbdc39f34	-0.0955185
160	0xbe1f867e	-0.15578648
161	0x3e22b02f	0.15887521
162	0xbe3424ea	-0.17592207
163	0x3e0d1b2d	0.13779898
164	0xbdbae182	-0.091250435
165	0x3de696b8	0.11259216
166	0xbbdc4076	-0.0067215515
167	0xbe710715	-0.23537858
168	0x3e178cac	0.14799756
169	0xbe67d2e2	-0.22639039
170	0x3e2d54f3	0.16926937
171	0xbe0dfa0a	-0.13864914
172	0x3e214574	0.1574915
173	0xbe18ea98	-0.1493324
174	0x3d0c4510	0.03424555
175	0xbd985b74	-0.07439318
176	0x3e61c165	0.2204643
177	0xbe182583	-0.1485806
178	0x3c4f809e	0.012664942
179	0x3e2a5495	0.16633828
180	0xbd8f61ac	-0.07001051
181	0x3e529137	0.20563208
182	0xbae55e1d	-0.0017499361
183	0x3e45a9f9	0.1930312
184	0xbd217925	-0.039422173
185	0x3d5376c2	0.05162693
186	0x3e21526d	0.15754099
187	0x3c3ba39d	0.011452583
188	0x3e208d9c	0.1567902
189	0x3b994882	0.004677833
190	0xbe65e540	-0.22450733
191	0x3bc59763	0.0060300096
192	0x3e19088a	0.14944664
193	0x3e104acc	0.14091033
194	0xbda50aef	-0.08058726
195	0xbd3580b9	-0.044312213
196	0xbe337a1e	-0.17527053
197	0xbd673a58	-0.056452125
198	0x3d9bc160	0.07605243
199	0x3d17adc4	0.03703095
200	0x3e6d0d1f	0.23149537
201	0x3dafb892	0.08580126
202	0x3e085956	0.13315329
203	0xbdbf2f50	-0.09335196
204	0x3e3b579d	0.1829514
205	0x3dba09f4	0.0908393
206	0x3df141eb	0.11780151
207	0x3e236071	0.15954758
208	0x3a663c2e	0.0008782771
209	0x3dd90c97	0.105981044
210	0x3d3b8042	0.045776613
211	0x3e14d4cd	0.14534302
212	0xbe262de1	-0.16228439
213	0xbe3ebe9d	-0.186274
214	0xbe3c853f	-0.18410204
215	0xbe39a6c8	-0.18130028
216	0xbde5b161	-0.11215473
217	0x3dbf56cc	0.09342727
218	0x3dce6e8f	0.10079681
219	0xbd35e6d1	-0.044409577
220	0x3e48ec6b	0.19621436
221	0xbd358350	-0.044314682
222	0x3e51164a	0.20418659
223	0xbdee4ae6	-0.116353795
224	0x3dbc2515	0.0918676
225	0x3e421662	0.18953851
226	0x3b284fbd	0.0025682293
227	0xbdb124da	-0.08649607
228	0xbdb54240	-0.08850527
229	0xbe55d7ca	-0.20883098
230	0x3d210660	0.03931272
231	0xbe3a8912	-0.1821635
232	0xbdeca9cf	-0.11555826
233	0xbcb6bcc8	-0.022306815
234	0xbd994c9f	-0.074853174
235	0x3df0bc61	0.117546804
236	0x3e5da9f4	0.21646863
237	0x3db5f774	0.088850886
238	0xbe43531a	-0.1907467
239	0xbd84c3c3	-0.06482651
240	0x3e4505f4	0.19240552
241	0x3e4e0fda	0.20123234
242	0xbe4d2270	-0.20032668
243	0xbe20fd01	-0.15721513
244	0xbdf2cba1	-0.118552454
245	0x3e397ea8	0.18114722
246	0x3c913618	0.01772599
247	0x3e4697d8	0.19393861
248	0xbe4971da	-0.19672337
249	0xbe70db9a	-0.23521271
250	0x3d95c5a5	0.07313088
251	0x3e511b30	0.20420527
252	0xbcd8ba25	-0.026455948
253	0x3e09a910	0.13443398
254	0x3d01c074	0.03167768
255	0x3c5a7f4b	0.013336013

linear1.weight f4 [18, 600]
0	0xbd0a3d8e	-0.03375011
1	0xbd0d60e6	-0.034516238
2	0x3d0a44e4	0.033757105
3	0x3c19e610	0.00939323
4	0xbc629e9e	-0.013831763
5	0xbcb5aa0b	-0.02217581
6	0xbc364dce	-0.0111269485
7	0xbd22fd7e	-0.03979253
8	0x3b15cdd0	0.002285827
9	0xbd07e194	-0.033174112
10	0x3b4feac0	0.0031725615
11	0xbd11f1bb	-0.035630923
12	0xbb399e90	-0.002832327
13	0xbb323b00	-0.0027195811
14	0xbcf42e20	-0.02980715
15	0x3c30aad8	0.01078292
16	0xbb9be0b0	-0.0047570094
17	0xbbf143e0	-0.0073628277
18	0x3b561550	0.0032666512
19	0x3b180280	0.002319485
20	0xbcb2e2a7	-0.021836592
21	0x3cafa154	0.021439232
22	0xbd08f054	-0.03343232
23	0xbbdcaa30	-0.006734155
24	0xbb8dd998	-0.0043289177
25	0xbcb4f946	-0.02209152
26	0x3ca1f000	0.019767761
27	0xbcd90478	-0.026491389
28	0x3bada5a8	0.005299289
29	0xbd0bc071	-0.034119073
30	0x3c72ff98	0.014831446
31	0xbc952091	-0.018204005
32	0x3cba1cc0	0.022718787
33	0xbc63b7a8	-0.0138987675
34	0xbcf70815	-0.030155221
35	0x3ac5f940	0.001510419
36	0xbcc5198d	-0.024060035
37	0x3d15813a	0.036500193
38	0x3c97c138	0.018524751
39	0x3cc2a060	0.023758113
40	0xbcccb026	-0.024986338
41	0xbb7c7730	-0.003852319
42	0xb987e800	-0.0002592206
43	0x3b017890	0.0019755699
44	0x3ceb0838	0.028690442
45	0xbc5a46c8	-0.01332254
46	0xbc4eb2e6	-0.012615895
47	0x3ca40fb2	0.020027015
48	0x3d0c8ab6	0.034311973
49	0x3cf517dc	0.029918604
50	0x3c881e42	0.01661599
51	0xbca6a734	-0.0203434
52	0x3cf826f8	0.03029202
53	0xbab4c4e0	-0.0013791583
54	0xbc807481	-0.015680553
55	0x3ccfc66c	0.02536317
56	0xbb61e710	-0.003447
57	0xbb318490	-0.002708707
58	0xbc924b0c	-0.01785805
59	0x3cad15a6	0.021128487
60	0xbd26dd7c	-0.040738568
61	0x3cac322e	0.021020021
62	0x3d1d52fc	0.03840922
63	0x3c8fd134	0.01755581
64	0xbd18ddcb	-0.037320893
65	0x3cf731f4	0.030175187
66	0xbcea81ca	-0.028626341
67	0x3863b800	5.429238e-05
68	0x3cc1f564	0.023676582
69	0xbcc8bf78	-0.024505362
70	0x3cd6446c	0.026155673
71	0x3c402c68	0.011729337
72	0xbc180780	-0.009279132
73	0xbc8a9406	-0.016916286
74	0x3b99b938	0.0046912692
75	0xbbb89a28	-0.005633611
76	0x3cc31ad0	0.023816496
77	0xbd06e3dc	-0.032932147
78	0xbcc632ed	-0.024194205
79	0xbc5c86d2	-0.013459878
80	0x3c00432c	0.007828515
81	0x3cc44000	0.023956299
82	0xbc9d6ae0	-0.019216001
83	0xbc78b20a	-0.015179167
84	0xbbf81598	-0.0075709336
85	0xbc053078	-0.008129232
86	0xbce737d7	-0.028224869
87	0x3ca6755c	0.020319633
88	0x3c0c4a70	0.008562669
89	0xbbdae7b0	-0.0066804513
90	0x3c087738	0.008329205
91	0xbd212167	-0.039338496
92	0xbc2c8096	-0.010528704
93	0xbc4dddb6	-0.012565067
94	0xbc6d16e8	-0.014470793
95	0x3a904060	0.0011005513
96	0x3d02313e	0.031785242
97	0xbc6441e8	-0.013931729
98	0x3c7beb5c	0.015375938
99	0xbb94b968	-0.0045387037
100	0xbcd9c482	-0.02658296
101	0xbc5c4d86	-0.013446217
102	0x3c673a4c	0.01411302
103	0x3cf56ea8	0.029959992
104	0xbd0930f3	-0.033493947
105	0x3ce89944	0.028393395
106	0xbd08a8f3	-0.033364248
107	0xbd138b95	-0.036021788
108	0x3ab93b60	0.0014132075
109	0x3cbba38c	0.022905134
110	0x3cc3d424	0.023904867
111	0x3d1e7014	0.038681105
112	0xbc16f07c	-0.009212609
113	0x3cf87a70	0.03033182
114	0xbd05b82c	-0.032646343
115	0xbcbd9d97	-0.023146434
116	0xbcb20698	-0.02173166
117	0x3c09c588	0.0084089115
118	0x3b6de190	0.0036297776
119	0x3c6771dc	0.014126267
120	0xbd0f8e83	-0.03504802
121	0xbc95e001	-0.01829529
122	0xbce690e6	-0.028145265
123	0xbbbbf7e0	-0.005736336
124	0x3d211bb6	0.039333068
125	0xbccd6cab	-0.025076231
126	0x3ab2ea40	0.0013650134
127	0xbccaeecd	-0.024772072
128	0x3a52ba40	0.00080386177
129	0x3c11fa6c	0.008909803
130	0x3ce56be8	0.028005555
131	0x3bdff210	0.006834276
132	0xbcb6b802	-0.022304539
133	0xbd1ab838	-0.03777334
134	0xbcf0053a	-0.029299367
135	0xbc1eb7fe	-0.009687422
136	0x3c9575a2	0.018244568
137	0x3cf2bed4	0.02963201
138	0x3cf5ee40	0.030020833
139	0xbbd089d0	-0.006364085
140	0xbbb94020	-0.0056533962
141	0x3c947676	0.018122893
142	0xbc5e7db4	-0.013579775
143	0xbcc5d99f	-0.024151621
144	0x3c421520	0.011845857
145	0x3d06d0b0	0.032913864
146	0x3d18c5c6	0.037297986
147	0xbcdd839e	-0.027040299
148	0xbc6ec3cc	-0.014573049
149	0x3ce316c8	0.027720824
150	0x3cdac20c	0.026703857
151	0x3cf1ebb4	0.029531337
152	0x3ca8f930	0.020626634
153	0x3cbada24	0.022809096
154	0x3b4cfd60	0.0031278953
155	0xbbff57a8	-0.007792432
156	0x3cc0713c	0.023491494
157	0x3bac4d68	0.005258251
158	0x3ce3bd18	0.027800128
159	0xbc0811a0	-0.008304983
160	0xbd1b3b5f	-0.037898418
161	0x3c941490	0.018076211
162	0xbd0fd981	-0.035119537
163	0xbcf0034c	-0.029298447
164	0xbb8f7078	-0.004377421
165	0x3d1fd5b4	0.039022163
166	0x3cbd71ec	0.023125611
167	0xbc63586e	-0.013876064
168	0x3c6365c4	0.013879243
169	0xbc1e5fda	-0.0096664075
170	0xbcdb624a	-0.026780266
171	0xbba01258	-0.0048849992
172	0xbd25881e	-0.040413015
173	0xbcc1cdf0	-0.023657769
174	0xba8145e0	-0.0009862743
175	0xbc741a04	-0.014898781
176	0xbcda36df	-0.026637493
177	0x3aa2c6c0	0.0012418851
178	0x3cf716bc	0.030162208
179	0xbc2f9cfa	-0.0107185785
180	0xbcc01ca2	-0.023451153
181	0xbd1b8898	-0.037972063
182	0xbb896c30	-0.004193805
183	0x3c92f400	0.017938614
184	0xbc095b28	-0.00838355
185	0x3c88b726	0.016688894
186	0xbc234c0e	-0.009966863
187	0xbb6f46c0	-0.0036510676
188	0x3b323030	0.0027189367
189	0xbcca3c8f	-0.02468708
190	0x3c70cb90	0.014696971
191	0xbcfb22ae	-0.030656185
192	0x3b966b88	0.0045904554
193	0xbcd9f468	-0.0266058
194	0xbcffd678	-0.031230196
195	0x3c529f6c	0.012855392
196	0x3d082090	0.03323418
197	0x3c5f7378	0.01363837
198	0xbb6e6770	-0.0036377572
199	0xbc385908	-0.011251695
200	0xbcdc9c60	-0.026930034
201	0x3c94049e	0.018068608
202	0xbc9eccd1	-0.019384773
203	0x3d09fb14	0.033686712
204	0xbc35e9e2	-0.011103125
205	0x3c97a582	0.018511537
206	0x3ce3f4f0	0.027826756
207	0x3c0581b0	0.008148596
208	0xbcd825b8	-0.026385173
209	0x3d0150dc	0.031571254
210	0x3d22b182	0.039720066
211	0x3d19821e	0.037477605
212	0xbc1739dc	-0.009230103
213	0x3d0bc6de	0.0341252
214	0x3c1fbe90	0.0097500235
215	0x3d1e8354	0.038699463
216	0x3cb0293e	0.02150404
217	0x3c88f3c6	0.016717803
218	0x3d221b8c	0.039577052
219	0x3d020b5c	0.031749114
220	0xbc85228c	-0.016251825
221	0xbcf2acad	-0.029623354
222	0xbcf478b6	-0.029842716
223	0x3cfe7ba4	0.031064816
224	0xbc30a870	-0.010782346
225	0xbd21c5da	-0.039495327
226	0x3b9ab6a0	0.0047214776
227	0xbd23a5dc	-0.039953098
228	0xbbbf8788	-0.005845014
229	0x3ce6ae5c	0.028159313
230	0xbd164e5e	-0.03669583
231	0x3cae2f06	0.021262657
232	0x3d12d9f6	0.035852395
233	0xba28a280	-0.0006432906
234	0xba0d7d80	-0.0005397424
235	0xbb9829d8	-0.00464366
236	0x3d1a731a	0.037707426
237	0xbc47bb5e	-0.012190668
238	0x3c0c4474	0.008561242
239	0x3c3a6398	0.011376284
240	0x3c9e9f28	0.019363001
241	0x3bed9fb0	0.0072517022
242	0xbd25e363	-0.040500056
243	0x3c489358	0.012242161
244	0x3c51234c	0.012764763
245	0x3b4e5d10	0.0031488575
246	0xbc4bcb2c	-0.012438577
247	0xbc6b5314	-0.014363069
248	0xbc4b7566	-0.012418127
249	0xbc57fc7a	-0.013182754
250	0x3c159314	0.009129304
251	0x3cbf1a6c	0.023328029
252	0x3d0230a6	0.031784676
253	0x3d0c7b68	0.034297377
254	0x3d1807a2	0.037116654
255	0x3d1f19f6	0.038843118

linear1.bias f4 [18]
0	0xbd128007	-0.035766628
1	0xbcaa2f38	-0.020774469
2	0xbb5a08f0	-0.0033269487
3	0xbccbc6e6	-0.024875116
4	0x3d60c9fc	0.054880127
5	0xbceaaa45	-0.028645644
6	0xbcc431bd	-0.023949498
7	0xbc58fff6	-0.01324462
8	0xbc582f47	-0.013194866
9	0xbc259037	-0.010105184
10	0x3d708922	0.05872453
11	0x386409e2	5.436864e-05
12	0xbbf7a0a0	-0.00755699
13	0x3d985782	0.07438566
14	0xbd06c21c	-0.03289996
15	0x3bd47298	0.006483387
16	0x3cbe5264	0.023232646
17	0x3c8c22dd	0.017106468

linear2.weight f4 [36, 18]
0	0xbd6c0564	-0.05762233
1	0xbe66c11a	-0.225346
2	0xbccd6418	-0.025072142
3	0x3ddb51ae	0.107089385
4	0x39fd6c00	0.00048336387
5	0xbdf1d53f	-0.118082516
6	0x3e52389b	0.20529406
7	0xbe53a549	-0.2066852
8	0x3e1239f7	0.14279924
9	0x3e3d688d	0.18496914
10	0xbdab184e	-0.08354245
11	0x3d5e97a4	0.054343835
12	0x3e19261b	0.14955942
13	0xbbcfa5e0	-0.0063369125
14	0xbe69c169	-0.22827686
15	0x3c2e22a0	0.010628372
16	0xbe462576	-0.19350228
17	0xbe05d2b8	-0.13068664
18	0xbccb2ed8	-0.02480261
19	0x3e45ab90	0.19303727
20	0xbe1d61fb	-0.15369408
21	0xbe1b90e0	-0.15191984
22	0xb89f46cc	-7.594898e-05
23	0xbe5ad96b	-0.21372001
24	0xbdc716cc	-0.09721145
25	0xbd9b6efe	-0.075895295
26	0x3e653acd	0.22385712
27	0x3e56e6a1	0.20986415
28	0xbdce93b6	-0.100867674
29	0x3dfc4797	0.12318342
30	0x3e4012a7	0.18757115
31	0x3e0c73aa	0.13715997
32	0x3e458a5f	0.19291066
33	0xbe39458e	-0.1809294
34	0x3df81d92	0.12115015
35	0xbe19e435	-0.1502846
36	0x3de84202	0.11340715
37	0x3bbe118a	0.0058004307
38	0x3e669031	0.22515942
39	0xbdaf1f9e	-0.085509524
40	0xbdb1f588	-0.086894095
41	0xbd80cfca	-0.062896326
42	0x3cafcdf8	0.021460518
43	0xbd0958d4	-0.03353198
44	0xbd70e3ef	-0.058811124
45	0xbdcad488	-0.09903818
46	0x3e512579	0.20424451
47	0xbdb899fc	-0.09013745
48	0x3d2ee914	0.04270275
49	0x3e4eb762	0.20187142
50	0xbd1b13fc	-0.037860855
51	0xbe2efd30	-0.17088771
52	0x3e6ba6c9	0.23012842
53	0xbd2a9572	-0.04164643
54	0x3b9adc00	0.004725933
55	0x3cfe31db	0.031029632
56	0xbe1f3307	-0.15546809
57	0x3dac539a	0.08414383
58	0x3d631032	0.055435367
59	0x3db9470e	0.09046756
60	0x3e660b91	0.2246535
61	0x3e6e05ad	0.23244353
62	0x3e63adf2	0.22234324
63	0xbe5e0125	-0.21680124
64	0xbe2a1262	-0.16608575
65	0xbda7c5be	-0.08192013
66	0x3e524a73	0.20536213
67	0x3e5aa863	0.21353297
68	0x3db70ef4	0.08938399
69	0xbe1934ca	-0.14961544
70	0x3e2b4a4f	0.16727565
71	0x3e1783e1	0.14796402
72	0x3dbde1ee	0.09271608
73	0x3c983265	0.018578717
74	0xbd2a6088	-0.041595966
75	0x3e2235e9	0.15840878
76	0xbcbab5a6	-0.022791695
77	0x3df7248a	0.12067516
78	0xbe288030	-0.1645515
79	0xbd9b694e	-0.07588445
80	0xbe64d074	-0.22345144
81	0xbd92bc38	-0.07164806
82	0x3d437f07	0.047728565
83	0x3dab4acf	0.08363878
84	0x3dac18d2	0.084031716
85	0x3e9eaa6e	0.30989403
86	0xbe2eb18a	-0.17059913
87	0x3b8aac00	0.00423193
88	0xbd9cc994	-0.076556355
89	0xbe323ae8	-0.17405283
90	0x3dae04a6	0.0849698
91	0x3e454410	0.19264245
92	0x3c023c70	0.00794898
93	0x3dd1fc96	0.10253255
94	0xbe1ef6d0	-0.15523839
95	0x3d3341f4	0.04376407
96	0x3dd0c45e	0.10193704
97	0x3e38f94b	0.18063848
98	0xbccb15fc	-0.024790756
99	0xbdddb156	-0.1082484
100	0x3c6f0797	0.014589212
101	0xbe618b7d	-0.22025867
102	0x3e33f107	0.17572413
103	0xbd053ca0	-0.03252852
104	0xbc998a4f	-0.018742708
105	0xbda1e112	-0.07904257
106	0xbdecf9d4	-0.115710884
107	0xbe68f3e1	-0.22749282
108	0xbe01cfe2	-0.12676957
109	0xbd13b708	-0.036063224
110	0xbd856ae0	-0.065145254
111	0x3bba9a00	0.0056946278
112	0x3c520ec6	0.012820905
113	0xbc4c85a0	-0.012483031
114	0x3db608c2	0.08888389
115	0xbe26e79e	-0.16299292
116	0x3e2d7760	0.16940069
117	0xbe674d60	-0.2258811
118	0x3dfda2d7	0.12384575
119	0x3c2cf49f	0.010556369
120	0xbdbf83e6	-0.093513295
121	0x3dedf3ad	0.11618743
122	0x3d80577e	0.06266688
123	0x3e3cd977	0.18442331
124	0xbe457ea1	-0.19286586
125	0xbcb2f6f8	-0.02184628
126	0xbcf992b0	-0.030465454
127	0xbdc7e377	-0.09760182
128	0xbd9f85e8	-0.077892125
129	0xbddfbffc	-0.1092529
130	0xbdb6677e	-0.08906458
131	0x3d1eb78c	0.038749263
132	0x3e58eacf	0.21183322
133	0xbe31879a	-0.17336884
134	0x3e324f1a	0.17412987
135	0xbe59366f	-0.21212171
136	0xbca3d95d	-0.020001108
137	0x3d9547da	0.07289095
138	0xbe15db01	-0.14634325
139	0xbe5c6f73	-0.2152689
140	0x3e472c28	0.19450438
141	0xbdfe624c	-0.124210924
142	0x3e3d3c8f	0.18480133
143	0xbe716bd8	-0.23576295
144	0xbd1b843c	-0.037967905
145	0xbe5580c0	-0.20849895
146	0x3e136245	0.14392956
147	0x3e01c707	0.12673579
148	0xbdbac905	-0.09120373
149	0x3c708ed0	0.014682487
150	0xbe68cb7d	-0.22733875
151	0xbdbad5f8	-0.091228426
152	0xbd0e0dfc	-0.034681305
153	0xbd61fe68	-0.05517426
154	0xbd9eb217	-0.07748812
155	0xbd838d20	-0.06423402
156	0x3d44d874	0.04805799
157	0x3de98b0d	0.11403475
158	0xbd3608d5	-0.044442017
159	0x3e44ff6f	0.19238065
160	0xbe205216	-0.15656313
161	0x3b8636d0	0.0040958896
162	0x3b884460	0.0041585416
163	0xbdcfd8c2	-0.10148765
164	0x3e1332dd	0.14374872
165	0x3e0e5edd	0.13903375
166	0x3da3b63c	0.07993743
167	0xbe0f046a	-0.13966528
168	0xbb6af180	-0.0035849512
169	0x3e3ab86d	0.18234415
170	0x3d387614	0.045034483
171	0xbd40fae8	-0.047114283
172	0x3e864419	0.2622383
173	0x3e4791e9	0.19489254
174	0xbc99b7c8	-0.018764392
175	0x3e3e66b3	0.18593864
176	0xbdbba4c2	-0.091622844
177	0xbe4782b3	-0.19483452
178	0xbdf2585f	-0.11833262
179	0xbdee9c92	-0.11650957
180	0xbd8461ba	-0.06463952
181	0x3d2e54d0	0.042561352
182	0xbe44e6d2	-0.19228676
183	0x3d96923a	0.07352109
184	0x3d8797ec	0.06620774
185	0xbe4d61eb	-0.20056884
186	0xbd1f8398	-0.038943857
187	0xbe603135	-0.21893771
188	0x3da40998	0.08009642
189	0xbe374471	-0.17897202
190	0x3db7c8fe	0.08973883
191	0xbdfe4fcb	-0.12417563
192	0xbe004f85	-0.12530334
193	0x3dc07793	0.09397807
194	0xbd9e44dc	-0.07727978
195	0xbd2d2150	-0.042268097
196	0x3cb1ead8	0.021718428
197	0x3d1457d4	0.036216572
198	0xbdb754a0	-0.08951688
199	0x3d17a12c	0.03701894
200	0x3e3767e3	0.17910723
201	0xbc010a20	-0.007875949
202	0x3e5e58f9	0.21713628
203	0x3e3cdfcd	0.18444748
204	0x3db99aaa	0.09062703
205	0xbe257144	-0.16156489
206	0xbc0b1660	-0.008489221
207	0xbc117e20	-0.008880168
208	0xbd91f4e2	-0.07126786
209	0xbe4a59b7	-0.19760786
210	0x3d3cff6c	0.046142027
211	0x3db6c3a1	0.08924032
212	0x3cc05e48	0.023482457
213	0x3e367509	0.17818083
214	0xbdce24b8	-0.10065597
215	0x3d879172	0.06619538
216	0xbe4ae2aa	-0.19813028
217	0xbddacaa9	-0.106831856
218	0x3cfaf648	0.030635014
219	0xbd574bac	-0.0525624
220	0xbe32f3cd	-0.17475815
221	0xbdb399c0	-0.0876956
222	0xbe17ad55	-0.14812215
223	0x3e1fc715	0.15603288
224	0x3e3e0254	0.18555576
225	0xbdb37321	-0.087621935
226	0x3e5ad279	0.21369351
227	0x3c07dd3c	0.0082924925
228	0xbda0c070	-0.078492045
229	0xbd40bea1	-0.047056798
230	0x3cef5e4b	0.029219767
231	0xbd9c3ad0	-0.07628405
232	0xbe3f0283	-0.18653302
233	0xbe390b09	-0.18070616
234	0x3e15e7f7	0.14639269
235	0x3ded2d2f	0.11580884
236	0x3d58216c	0.05276625
237	0xbd9c12f0	-0.076207995
238	0x3e64f4bc	0.22358984
239	0xbe21375b	-0.15743773
240	0x3e38c7ff	0.18045042
241	0x3d3ab0d4	0.045578793
242	0xbdad7239	-0.08469052
243	0xbe4d42dc	-0.20045036
244	0xbd6cbfda	-0.05780015
245	0x3c529730	0.012853429
246	0xbe4df717	-0.20113789
247	0x3ea053f9	0.31314066
248	0x3ca3328c	0.019921564
249	0xbe13b374	-0.14423925
250	0x3cdc1d98	0.02686958
251	0xbdd7c9a1	-0.105365045
252	0x3db64dd2	0.08901562
253	0xbe5054b0	-0.20344806
254	0x3e1477e3	0.14498858
255	0x3d92dfb2	0.07171573

linear2.bias f4 [36]
0	0xbe35d298	-0.17756116
1	0x3e15307e	0.1456928
2	0x3e5f6a59	0.21817912
3	0x3e0343ae	0.12818787
4	0x3e620ac6	0.22074422
5	0x3da71a56	0.0815932
6	0x3e60e31b	0.21961634
7	0x3cfda0f1	0.030960532
8	0x3e62e65f	0.22158192
9	0xbd076918	-0.03305921
10	0x3bf08680	0.0073402524
11	0xbe5b51a1	-0.21417858
12	0x3e5bf9b9	0.2148198
13	0x3dffb013	0.12484755
14	0xbd0794a8	-0.033100754
15	0x3d704fc9	0.05866984
16	0xbe40f5a7	-0.18843709
17	0x3dd7c096	0.1053478
18	0xbe4cf41b	-0.20014994
19	0x3ce7eee6	0.028312158
20	0x3d874d2c	0.06606516
21	0xbdf7c174	-0.12097445
22	0x3e72508b	0.23663537
23	0xbe712228	-0.23548186
24	0x3e4739ea	0.19455686
25	0xbdb98088	-0.090577185
26	0xbce3c0dd	-0.027801925
27	0xbe25442e	-0.1613929
28	0x3e150a8b	0.14554803
29	0xbe3184f2	-0.17335871
30	0x3db76aba	0.08955903
31	0x3e27fcdc	0.16405052
32	0xbdd5f4d6	-0.104470894
33	0x3d946563	0.072459005
34	0xbdc65d67	-0.09685784
35	0x3e5d0938	0.21585548
